models/lstm_trend_model.pth (torch, 211894 bytes, 9 tensors)

lstm.weight_ih_l0 f4 [256, 7]
000000 d5 34 d3 3d cc f3 88 bd 6b f1 ea bc 62 87 94 3d
       0.10312811 -0.066871256 -0.02867957 0.07252385
000010 f4 16 5c bc 1e 09 81 bd 48 91 e3 bd b2 f6 b7 bd
       -0.013433207 -0.06300567 -0.111116946 -0.089826
000020 2e 3b 78 3d 79 a9 db 3d 72 2c ce 3c 2d 14 f7 bd
       0.060603313 0.10725684 0.025167678 -0.12064395
000030 d8 65 cb 3c ec da 06 3d 38 cd 90 bd 0b ab 4b 3d
       0.024828836 0.032923624 -0.07070392 0.049723666
000040 6f d5 06 3e 6f ef 6c bd 3a 6e 32 bd 04 3f ca bd
       0.13167356 -0.05784553 -0.04356215 -0.098753005
000050 7a 08 86 bd 49 50 13 bb 87 a5 f6 3d ba 03 b5 bd
       -0.065445855 -0.0022478274 0.120432906 -0.088386014
000060 0a aa a8 3c ce fd c6 3c e8 09 ff 3c a0 95 ca 3d
       0.020588893 0.024290945 0.031132653 0.0989182
000070 e8 35 f3 bb 18 30 c0 ba 10 78 20 3c 32 9a 1f bd
       -0.0074221976 -0.001466277 0.00979425 -0.03896541
000080 be 6f 40 bd 1c 00 84 bd 30 49 8c bc 3f 04 88 bd
       -0.046981566 -0.06445333 -0.017124742 -0.06641435
000090 c5 0f d2 bd 47 87 88 3b 7d 06 8b 3d ac 2d 6f 3d
       -0.10256914 0.004166517 0.06788347 0.058393165
0000a0 52 97 c2 bd a4 7c 83 bd 4b 96 a0 bd 0f f2 86 3d
       -0.09501518 -0.06420258 -0.07841166 0.06589138
0000b0 9e 00 08 3d 53 be 0f 3d 10 3d 43 3d 86 df e7 3d
       0.033203714 0.035093617 0.047665656 0.113219306
0000c0 90 bc 6a bd 4e d9 99 3d 34 92 39 3c 45 fa 9c 3d
       -0.057308733 0.07512151 0.011326361 0.076649226
0000d0 47 2d ca 3d ff fb 48 3d 9a f1 dc 3d b6 41 bd 3d
       0.09871917 0.049068447 0.10788269 0.09241049
0000e0 02 7f 88 3d 65 94 9d bc b1 93 62 3d c3 4b f4 3d
       0.0666485 -0.0192358 0.05531663 0.11928513
0000f0 fd 4d f6 bb 5c d3 f6 bd cc be d7 3d 03 f2 04 3e
       -0.007516621 -0.12052032 0.105344385 0.12982945
000100 22 a5 e4 3d 7f fa b9 bd 38 c4 a7 bd f0 ae 73 39
       0.11164309 -0.090809815 -0.08191723 0.00023239455
000110 e0 42 61 3d f0 03 8f bd e0 99 e2 bd 73 55 ef bd
       0.054995418 -0.06983173 -0.110645056 -0.1168622
000120 0f 84 25 3d 1f e0 7e 3d 87 4d 6b bd a8 ea fd bd
       0.040409144 0.062225457 -0.057446983 -0.12398273
000130 56 97 87 3d 44 c3 05 be cb a7 47 3d 52 ed 61 bd
       0.06620662 -0.13062769 0.048744004 -0.055157967
000140 35 fb 04 be 01 23 a6 3d e4 77 35 bd 78 47 fc 3c
       -0.12986453 0.08112145 -0.04430379 0.030795798
000150 34 aa b0 bd ad 5c 96 3d 94 cc 20 bc 4d 77 ac 3d
       -0.08626214 0.07341895 -0.0098144 0.08421192
000160 92 c8 3f bd 58 2b 3b 3d 60 43 a9 bd 3a bd cf bd
       -0.046822138 0.045695633 -0.08264804 -0.10143514
000170 8c 44 12 3d c5 05 cc bd 82 fb 06 3e 6e 6e e7 bd
       0.035709903 -0.09962038 0.1318188 -0.1130036
000180 e0 9b dd bc c0 32 da 3b fe 74 cf bc 25 7c 47 bd
       -0.027051866 0.006658882 -0.02532434 -0.048702378
000190 0a 24 b2 3d 0f 91 c1 3d 41 fd d6 bc 86 3a de bd
       0.0869828 0.09451496 -0.026243808 -0.10851006
0001a0 1a 62 ba 3d e5 44 38 bd c9 b6 42 bd ce f6 98 3d
       0.09100743 -0.044987578 -0.0475376 0.07468949
0001b0 7f ec 74 3d 42 8e ab bd 50 bd c4 bd 08 77 e5 bc
       0.059795853 -0.08376743 -0.09606421 -0.02801086
0001c0 9f a2 a9 bb 2a e2 a7 3d 40 f9 8b 3b e3 fe 49 3d
       -0.0051768566 0.08197434 0.0042716563 0.049315345
0001d0 97 35 34 bd 10 66 14 3d a0 ea 4c 3d 61 0a 3c 3c
       -0.04399642 0.036230147 0.050028443 0.011477084
0001e0 e9 49 fa bd af 33 e2 3d 39 17 3e 3d e2 80 18 3d
       -0.122211285 0.11045014 0.046408866 0.037232287
0001f0 c0 b7 33 bd 6e 54 e7 3d 59 06 9f 3d 7f ff f5 bd
       -0.04387641 0.112954006 0.077648826 -0.12011623
000200 c1 fb 3c 3d af 91 05 bd 07 56 b7 bd 0c b4 0c 3d
       0.04613853 -0.032609638 -0.08951955 0.034351394
000210 fc 15 26 3d cf 4b b1 bd 5d c5 ba bd 3a 1a c7 3d
       0.04054831 -0.086570375 -0.09119675 0.09721799
000220 f7 38 09 3c bf 83 ed 3d 00 71 97 3d dc 81 57 bd
       0.008375398 0.11597394 0.073946 -0.052614078
000230 51 fd 96 3d 8a 04 97 bd 90 ea 86 3d 73 53 98 3d
       0.07372535 -0.07373913 0.06587708 0.07437792
000240 09 97 ec 3d 7a 77 ba 3d 80 e1 09 3b 00 2a 21 bd
       0.11552245 0.091048196 0.002103895 -0.039346695
000250 da ee ee bd a1 10 18 bd b3 3c bb bb 66 fd 04 be
       -0.11666651 -0.037125234 -0.005714023 -0.12987289
000260 78 f4 82 bc 84 17 2f 3d bd 3f 6c 3d f0 86 31 3d
       -0.015985712 0.042747036 0.057677973 0.043341577
000270 ea dc cf bc 97 c6 b8 3c 44 dd c5 3d 36 d7 87 3d
       -0.025373895 0.022555633 0.09661344 0.06632845
000280 c4 d4 d0 3d bb 27 04 3d 01 ab 75 bd e8 0d e1 bd
       0.10196832 0.032264452 -0.059977535 -0.109889805
000290 9d b3 b4 bd fd d6 ba bd 0e 3c 84 bd c0 8b c3 bc
       -0.08823321 -0.09123037 -0.06456767 -0.023870349
0002a0 d0 04 21 3d 42 bf 14 bd 71 37 c4 bd d0 c3 43 bc
       0.03931123 -0.03631521 -0.09580887 -0.011948541
0002b0 53 e4 0e bd 98 c0 48 bd 40 87 30 bd c2 27 e2 3d
       -0.034885716 -0.049011797 -0.043097734 0.110427395
0002c0 ff f1 a4 3d 50 32 e1 bc 39 08 00 3d 71 33 f2 3d
       0.080539696 -0.027489811 0.03125784 0.11826218
0002d0 20 e0 dc 3d 44 d9 71 bd ae 99 a0 bc 47 28 e8 bd
       0.10784936 -0.05904509 -0.01960453 -0.11335807
0002e0 89 bb 34 3d 5b 56 aa 3d f9 b1 05 3e e8 06 3b 3d
       0.04412416 0.08317252 0.13056172 0.045660883
0002f0 82 89 d8 bd ff a5 2a 3d ea 29 92 bd a2 af 9c bd
       -0.105731025 0.041662212 -0.07136901 -0.07650687
000300 a1 5d a9 3c 0e 0c 6c 3d 80 60 16 bb 30 0b 4d 3c
       0.020674529 0.057628684 -0.0022945702 0.012514874
000310 15 fa 5a 3d 50 2e 68 bd fa b1 a3 3b 74 e0 d3 bd
       0.053461153 -0.056684792 0.0049955817 -0.103455454
000320 58 8e 47 3d 36 7e 9a 3d cc ae 6e bd 9f 25 d9 bd
       0.048719734 0.07543604 -0.058272168 -0.10602879
000330 e1 50 8b 3d ac 2e cf 3d ea 65 85 3d 3c 9c a8 3d
       0.06802536 0.10116324 0.06513579 0.08232924
000340 80 b7 fe ba 74 b6 b8 bd 06 34 b5 3c b0 b6 cb 3d
       -0.0019433349 -0.09019175 0.022119533 0.09946954
000350 72 94 8b 3d ae ef 2e bd 1f c3 0b bd e0 0c 84 3b
       0.06815423 -0.042709045 -0.03412163 0.004029855
000360 a8 d0 15 3d 9e 38 d0 3b 25 74 89 bd b0 53 91 3c
       0.036575943 0.0063544055 -0.06711606 0.0177401
000370 3a b3 57 bd 68 d2 f0 ba 08 f7 2e bd 7c 17 5b bd
       -0.05266116 -0.0018373253 -0.042716056 -0.053489193
000380 f6 26 e1 bc f2 21 17 bd b3 6a a3 3d c9 2d 8b 3d
       -0.027484398 -0.036897607 0.07979336 0.06795842
000390 6d c7 cb 3c 9c 44 a6 3d ea f4 a3 3d 02 ad cd bd
       0.024875367 0.08118555 0.08005698 -0.10042764
0003a0 4c 1e 06 bd ed 60 87 bc a9 33 8c 3d ee 40 f8 3d
       -0.032743737 -0.01652571 0.06845791 0.12121759
0003b0 e0 59 03 bc 78 e5 06 bd 9c 7a 80 3c e5 87 91 bd
       -0.008017033 -0.032933682 0.015683465 -0.07105998
0003c0 42 49 fc bb 24 f5 58 bd 36 f7 49 bc 90 d7 a4 3c
       -0.0076991627 -0.05296816 -0.012327006 0.02012232
0003d0 2c f6 32 3d 2c 03 71 3c 3b 4d a6 3c 66 07 93 3d
       0.0436918 0.014710229 0.020300498 0.071791455
0003e0 cc ac 4b bb 88 01 77 3d 3e 7c bf 3d 20 59 56 bc
       -0.0031078337 0.060304195 0.09349869 -0.0130827725
0003f0 ee 7f 01 3d 7b fa c1 3d 86 0a d4 bd 1b a1 8a 3d
       0.031616144 0.094716035 -0.1035357 0.0676901

lstm.weight_hh_l0 f4 [256, 64]
000000 32 6e 6f bd e3 a5 d1 3c 73 33 f8 3c 2a 0f b9 bd
       -0.0584547 0.025591796 0.03029797 -0.090360954
000010 28 17 b8 3d 4d 0a e7 3d b6 4a 75 bd b4 31 89 bc
       0.08988792 0.112812616 -0.059885703 -0.016747333
000020 53 91 14 bd 45 8e 27 3d 0e 5b 40 bd 0f cd 8e 3d
       -0.036271404 0.040907163 -0.046961837 0.069727056
000030 4c e5 7f bd f8 de 98 bd f7 d6 b3 bd 6c 4c da bd
       -0.062474534 -0.07464403 -0.08781236 -0.106591076
000040 2a 58 59 3b dd c3 f9 3d 13 09 47 3d 40 32 80 bd
       0.0033164122 0.12195561 0.04859264 -0.062595844
000050 34 b6 92 3d d6 33 29 3d d0 23 fe bd 6f 58 b3 3d
       0.07163659 0.0413092 -0.124091744 0.08757102
000060 79 af 11 bd ea 17 99 bd b5 b7 b8 3d 77 00 3a bc
       -0.035567734 -0.07475264 0.09019414 -0.01135265
000070 aa 8e dc 3d fa 54 97 3d 40 ec 50 bd 47 22 b8 3d
       0.107693985 0.07389255 -0.051006556 0.08990913
000080 ef e0 ba 3d 35 38 6d bc 9e 3a db 3d b6 55 8c 3c
       0.09124934 -0.014478733 0.1070454 0.017130714
000090 f2 da 94 3d de 04 ab bd e0 64 80 3d 8d e3 36 bd
       0.07268323 -0.08350538 0.062692404 -0.044650603
0000a0 a0 64 60 3d fb ad fb bb 3a 9d bc 3d a4 85 d3 bc
       0.054783463 -0.007680652 0.09209676 -0.02582056
0000b0 64 d2 01 be 5e 7c e8 bd 8a 51 20 3d 48 93 81 3d
       -0.12677914 -0.11351846 0.03914026 0.0632692
0000c0 52 36 28 3d 54 72 36 3c ac 9a 88 bd 9c b3 94 bd
       0.04106743 0.011135656 -0.06670126 -0.0726082
0000d0 a7 4e 1a 3c d8 ad d7 bd d1 ae 9f 3b 00 a4 73 bd
       0.009418166 -0.10531205 0.0048731347 -0.059482574
0000e0 09 db 62 3d 35 1d fb bd d3 bf a7 bc 4d 9b 54 bd
       0.05538467 -0.1226143 -0.020477211 -0.05190592
0000f0 fd b7 ef 3c 1e 41 14 bd 9e ee a6 3d aa e0 09 3d
       0.029262537 -0.036194913 0.08150981 0.033661522
000100 79 9a a0 3d a1 88 f5 3d 2c 4d 82 3d 9c ba bc 3d
       0.07841963 0.119889505 0.063623756 0.092152804
000110 10 f4 0d bb 66 76 10 3d f3 60 ec bd f9 4c 95 bd
       -0.0021660365 0.035269164 -0.11541929 -0.07290072
000120 6a 6d 25 3d be 84 f5 3c 7e ab 6e bd f2 50 6f bd
       0.04038755 0.029970523 -0.058269016 -0.058426805
000130 90 cf 3b 3d 38 36 ae 3c 66 64 89 bc 78 9c 4a bd
       0.045852244 0.021266088 -0.016771507 -0.049465626
000140 39 44 55 3d 5e 35 c2 bd 78 e5 d2 bc ca bf f9 3b
       0.052067015 -0.09482835 -0.025744185 0.00762174
000150 8c 90 26 bb d4 e2 03 3d a4 dc f3 bc aa 61 d4 bd
       -0.0025415746 0.032198742 -0.029768296 -0.103701904
000160 d9 83 cd bd 45 5d 20 bd 54 9e e1 bd 6a bb 1d 3d
       -0.100349136 -0.03915145 -0.11016527 0.03850881
000170 5f b4 ed 3d 4e cc cb bc 8f ce c3 bd d5 b5 26 3d
       0.11606669 -0.024877694 -0.09560882 0.040700752
000180 36 1f 4b 3d 0b 18 ae bd 15 bd 02 be 34 9b c8 3d
       0.049590312 -0.085006796 -0.12767442 0.09795228
000190 12 48 1e 3b 3c 8d 83 bd 21 0c 94 bd 3e 68 c5 3a
       0.0024151844 -0.06423423 -0.07228876 0.0015060974
0001a0 a7 1a 44 bd af 6f bf bd 7c d4 24 bd 96 89 b5 bd
       -0.04787698 -0.09347474 -0.040241703 -0.08864133
0001b0 c5 0a cf bd e0 9c b9 bd d2 e7 76 3d 96 54 f6 bd
       -0.10109476 -0.09063125 0.060279675 -0.12027852
0001c0 2b b5 6c bd e7 53 af 3d 73 f8 f9 3d 65 73 e4 bd
       -0.057789963 0.08560925 0.12205591 -0.11154822
0001d0 52 7a a7 bd 80 6b 32 bd 24 ff 1a 3d 18 dc d0 bb
       -0.081776276 -0.04355955 0.037840977 -0.0063738935
0001e0 f2 0a 58 3c 6b 3b 2b 3d 69 34 83 bd 00 54 32 3c
       0.013186203 0.041804712 -0.06406481 0.010884285
0001f0 69 b2 df bd f1 6f a2 3c 82 5d f9 3b 5c a6 3b 3d
       -0.10922701 0.019828768 0.007610024 0.04581295
000200 02 aa e9 3d 30 db a3 3d 00 46 05 bd 21 1f 6b bd
       0.114093795 0.08000791 -0.03253746 -0.057402734
000210 ad f9 b6 bc 2e db f7 3c 23 b6 82 3d aa 94 73 3d
       -0.022335852 0.03025588 0.06382396 0.05946795
000220 74 54 b5 bd 6a 02 00 3d b5 ea e6 3d cd 7d d7 bd
       -0.08853999 0.031252302 0.112752356 -0.105220415
000230 24 00 c6 3d 23 cc b7 bd 35 ea 08 3e 55 27 ed 3d
       0.096679956 -0.08974483 0.13370593 0.115797676
000240 12 c9 0f 3c d4 22 39 3b 59 d2 b2 3d bd f1 af bc
       0.008775966 0.002824952 0.08731527 -0.021477574
000250 19 7a d0 bd bc 61 18 bc c0 6a 9e bb 35 89 c2 bd
       -0.10179538 -0.009300645 -0.004834503 -0.094988264
000260 48 33 74 3c 7c 1e f6 3d aa 39 dd bb 21 b5 67 3d
       0.0149048045 0.12017533 -0.006751259 0.056569222
000270 0c a4 34 3c 83 8d 8b bd c9 7b f2 3d e2 8c bb 3d
       0.01102544 -0.068141006 0.118400164 0.09157731
000280 90 cd 9c 3d 25 ec 86 3d d5 96 f7 bd 92 0f 1d bd
       0.076563954 0.0658801 -0.12089316 -0.038344927
000290 5a 94 ca bd 32 0d a2 3d 3f 3c 9b bd 79 ac f5 bd
       -0.09891577 0.07912673 -0.075798504 -0.11995787
0002a0 1e 4a 8a bd 44 cf a7 3d bf 40 0e 3d a5 8b cf bd
       -0.06752418 0.0819383 0.034729715 -0.10134057
0002b0 5b 2b c0 3d a2 5f bb 3d 86 f1 4d 3d e5 5f 4d 3d
       0.093832694 0.091491 0.050279163 0.05014028
0002c0 9e 0c 52 3d c7 90 23 3c b2 ee 96 bb 8b 65 89 bd
       0.051281564 0.009983248 -0.0046060914 -0.06708821
0002d0 48 93 dc 3d f2 e2 ee 3c 9e f5 ea 3d c4 8f bc bd
       0.10770279 0.02916095 0.11472629 -0.092071086
0002e0 5f 4e 56 3d 44 f8 86 3c ca 97 ce bd b3 ee 22 3d
       0.052320834 0.016475804 -0.10087545 0.039778423
0002f0 3a 1a 1f bd d3 bd 63 bd f3 3c 20 3d ff 67 a3 3d
       -0.03884337 -0.055600952 0.039120626 0.0797882
000300 73 80 66 3d eb fa df bd 1b 17 30 bd af 8e 7d bd
       0.056274842 -0.10936531 -0.042990785 -0.06190365
000310 58 a3 73 3d f2 f9 30 bb 2b b8 d7 3d d8 1c cb bd
       0.05948195 -0.0027004448 0.10533174 -0.09917611
000320 71 7c c5 bd 98 54 f6 3d 04 3b 70 bc 72 45 de bd
       -0.09642876 0.12027854 -0.014662508 -0.108530894
000330 eb 25 6c 3d 6b 9a af 3c 4f d3 c5 3c 86 8e ae 3c
       0.05765335 0.021435937 0.024148611 0.021308195
000340 a5 56 25 bc 22 99 c8 3d 62 b2 a7 bd f9 4c d8 3d
       -0.010091458 0.09794833 -0.08188321 0.10561556
000350 ee 7a 56 bc 84 fc d4 bd 6f 7a 32 3c ab 70 e4 3c
       -0.013090832 -0.10399726 0.010893448 0.027885756
000360 88 0e 4f bc d5 aa 97 3a ab 05 45 bd 55 19 ba 3d
       -0.012637742 0.0011571298 -0.04810111 0.09086863
000370 5b a7 1f bc 13 2c 8e 3d 33 e0 03 3e 6e dc 2b bd
       -0.0097444905 0.06942 0.12878494 -0.041958265
000380 df e5 aa bd b4 b4 3e 3d 2e f6 58 3d 0a c4 54 3d
       -0.08344626 0.04655905 0.05296915 0.05194477
000390 5b 69 a4 3b a8 68 a7 bd cb 3c 38 3d 7a 59 ba bd
       0.005017442 -0.081742585 0.04497985 -0.090990975
0003a0 63 c6 a5 3d 0b 2e fd bc 9e 82 3c bd bb 6f df 3d
       0.0809448 -0.030905744 -0.046023004 0.10909983
0003b0 79 3e 8e 3d ee 3c 71 3d 20 22 dc 3d ce 3d cd 3d
       0.069455095 0.058895998 0.10748696 0.10021554
0003c0 73 1a 8f bd db 58 05 bd 44 e4 2d 3d 3e 2d da bd
       -0.06987467 -0.032555442 0.04245402 -0.106531605
0003d0 05 97 de bd be 09 0e bd e1 73 a0 3d af 0c 62 bd
       -0.108686484 -0.03467726 0.07834602 -0.055187877
0003e0 24 52 b6 3d 04 1a cf bc 3b 72 d7 3d fb df e6 bd
       0.08902386 -0.02528096 0.105198346 -0.1127319
0003f0 59 d0 83 bd fd bf 4d 3c ff 5a 1c ba a8 42 42 3c
       -0.064362235 0.012557981 -0.0005964487 0.011856712

lstm.bias_ih_l0 f4 [256]
000000 35 e4 13 bd 1f 00 cc 3d 0c 59 e0 bc c3 07 af 3c
       -0.036106307 0.099609606 -0.02738621 0.021366006
000010 93 19 1c 3c 11 d4 b5 3d 92 f0 c1 3d 34 1d fa 3d
       0.009527582 0.08878339 0.09469713 0.12212601
000020 85 04 9c bd c7 c5 1c 3d 04 22 cf bd 3e 0b 92 3d
       -0.076180495 0.038274553 -0.1011391 0.071310505
000030 eb c6 12 3d 55 66 b6 3c ed 0e 04 be 73 32 46 bc
       0.035834234 0.022265593 -0.12896319 -0.012096989
000040 74 12 9d b9 fd 2b 44 3c 36 de cc 3d ba d0 a0 bd
       -0.00029959122 0.011973378 0.10003321 -0.078523114
000050 0a 44 bf 3d 1f 81 e5 bd 8f c7 d5 3d eb 63 8c 3d
       0.09339149 -0.112062685 0.104384534 0.06854995
000060 aa fe 93 bd 27 01 33 bd ac 44 0d bd 0f 6a e6 bd
       -0.07226308 -0.04370227 -0.03448932 -0.11250698
000070 32 68 6a bd 49 47 ea 3d ba dd 12 bd a0 03 d3 3c
       -0.057228275 0.11439378 -0.035855986 0.025758564
000080 5f 0e c2 3c 0e ed 56 bd d4 88 a8 3d bc 19 7c 3b
       0.023688493 -0.052472167 0.08229223 0.0038467487
000090 e3 d3 10 3d 02 74 72 bd cf a0 6c 3d 88 bc 51 3d
       0.03535832 -0.059192665 0.057770547 0.051205188
0000a0 7a c7 cb 3d bc f9 b8 3d 9c e4 2d bd f9 bf a1 bd
       0.099501565 0.09032008 -0.042454347 -0.07897944
0000b0 a1 9e bc bc 11 9e f5 bc cb 5b b2 3d 05 dc c3 bd
       -0.023024859 -0.029982598 0.08708914 -0.0956345
0000c0 57 39 96 3d 73 32 b8 bd 65 f8 f4 bd 97 c5 3a bd
       0.073351555 -0.089939974 -0.1196144 -0.045598593
0000d0 ba 51 90 bd 3c 2d 8c b9 0f a2 a7 3d 52 1e 03 be
       -0.07046838 -0.00026736583 0.08185207 -0.12804535
0000e0 1c a0 d9 bc 36 b1 c3 bd ed fa c2 bd 38 5f 54 bd
       -0.026565604 -0.09555285 -0.095205165 -0.05184862
0000f0 48 cc 26 3d 68 f9 78 3d f1 9b 8f bd 33 02 10 3d
       0.04072216 0.060784727 -0.07012165 0.035158347
000100 fc 9c bc bd 1e dc 90 bd 53 7f c0 bb fa 28 e1 bd
       -0.0920963 -0.07073234 -0.005874553 -0.10994144
000110 2a 0f c1 3d 60 b3 b8 3d d3 7d 7a bb 8d f3 d6 bc
       0.094267204 0.09018588 -0.003822197 -0.026239181
000120 9b bf ca 3c 9f ed d8 3d 64 f4 b4 3c 81 9a 7d bd
       0.024749568 0.105921976 0.02208919 -0.061914925
000130 0e 7d 07 3d 4f 62 be bd e6 af a5 3d dd 6e e6 bd
       0.033078246 -0.092960946 0.080901906 -0.11251614
000140 d2 7c fb bd 04 98 84 3d 9c 25 8a bd f7 c9 bc bd
       -0.12279667 0.06474307 -0.06745455 -0.09218209
000150 fd 38 a0 bd d0 82 01 be 1c 8a b9 3c 1b 89 ef 3d
       -0.0782337 -0.12647557 0.022648863 0.11696073
000160 09 88 d3 3d 2a 27 52 3d d7 d0 e7 bd be 00 a2 3d
       0.10328681 0.05130688 -0.1131913 0.07910298
000170 2e 41 df bc b4 50 05 3e c8 b5 fa 3c 77 fe b1 bc
       -0.02725276 0.13019067 0.030604258 -0.021727784
000180 6e 44 d1 3c ad 04 be 3c 59 f8 a2 3c 83 98 13 bb
       0.025545325 0.023195589 0.019893812 -0.0022521324
000190 4d 3f d7 bd b7 90 99 bd 41 87 a9 3d ab 44 3a bc
       -0.105101205 -0.07498305 0.08277751 -0.011368911
0001a0 cf 10 b1 bc 61 b3 b1 bd cd 07 9a 3d 15 09 1a 3d
       -0.02161446 -0.08676792 0.07521019 0.037606318
0001b0 57 f0 bc bc 0b b8 33 3d e9 dd b6 3d 1a 1c 3a 3d
       -0.023063822 0.04387669 0.08929045 0.045436956
0001c0 71 7d 16 bc 66 91 ae bd c9 48 ec 3d 2b e4 af ba
       -0.009185181 -0.08523826 0.1153732 -0.001341944
0001d0 94 28 cd bd 8d 4d 90 3b 73 6b ef bc 54 4f 93 3c
       -0.10017505 0.004403776 -0.02922604 0.017982163
0001e0 de 26 be 3d e2 ab a0 bd 7d df c8 3d 54 df e1 3d
       0.09284757 -0.07845284 0.09808252 0.110289246
0001f0 97 4a d9 3d 1d 8e 8d 3c ba 9e 9d bd 7e 77 a3 bd
       0.1060993 0.017279679 -0.0769629 -0.07981776
000200 e3 33 51 3c 10 e9 ec bc ed 01 c7 bd d6 0e 53 3d
       0.012768718 -0.028919727 -0.09717164 0.05152782
000210 6c 0f 01 bd a7 a4 01 3e 8e 10 8b 3c 1e 90 f1 3d
       -0.031508848 0.12660466 0.016975667 0.11795066
000220 01 3d b7 3c ff 34 8e 3d b7 b9 cd bd 5c 25 1f 3d
       0.022367956 0.06943702 -0.10045188 0.038853988
000230 9e bd 54 bd 88 1e 7e 3d c5 0d c9 3b 56 13 9e 3d
       -0.051938646 0.062040836 0.0061356747 0.07718532
000240 d8 e9 b8 bd d3 5b e0 bd 2c 6f b7 3c 91 6f 00 3d
       -0.09028977 -0.10955014 0.022391878 0.031356398
000250 20 c9 bc bd 13 7b bc bd d4 e0 24 3d 42 b6 c8 bd
       -0.09218049 -0.09203162 0.040253475 -0.09800388
000260 7d 9b ea 3d 27 10 ba 3d 95 c3 fa 3d 06 9b ed 3b
       0.11455438 0.09085112 0.122443356 0.0072511462
000270 79 24 e3 bd 45 8e d8 bd 06 6a ea bd 35 ac 9d 3d
       -0.11090941 -0.10574011 -0.114460036 0.076988615
000280 fc 4f 50 3c 07 b5 5a bd c4 30 31 bd e7 cb 94 3b
       0.012714382 -0.053395297 -0.043259397 0.0045409086
000290 8e ff 88 3d 51 7f a2 bd 24 ed d9 3d 6a af 43 3d
       0.06689368 -0.0793444 0.10640934 0.04777471
0002a0 9b 6d 3f bc 34 14 08 be ce aa 32 bd 33 64 e9 3d
       -0.011683847 -0.13288957 -0.043619923 0.113960646
0002b0 08 d7 61 bd 19 66 47 3d 81 00 21 bd da 68 8c bc
       -0.05513671 0.048681352 -0.03930712 -0.01713984
0002c0 cc e3 d0 3b 0e 09 92 3c b8 8f b4 3c 9d d9 bf bc
       0.0063748118 0.017826583 0.022041187 -0.023419196
0002d0 db 8a d8 3d f9 b7 b8 3d 7d b2 49 3d fc 05 d3 bd
       0.105733596 0.09019465 0.049242485 -0.10303876
0002e0 0f b0 aa 3c fe 8c c9 3d 43 b0 15 3d 28 c5 e8 3c
       0.020835904 0.09841345 0.03654505 0.028414324
0002f0 cb fd 86 bd 57 f6 08 bd 3d f0 f9 3d 5f 8e f3 bd
       -0.06591376 -0.033438053 0.12204025 -0.118923895
000300 1d 0d 74 3d 29 63 8e 3b e5 de a5 bc 9c 9a d9 3d
       0.05958282 0.004345317 -0.020247886 0.106251925
000310 fd 68 67 3c cb 65 63 bd f9 79 8e 3d 04 fe ba 3d
       0.014124152 -0.055517 0.06956858 0.09130481
000320 d8 c8 08 3d c3 69 84 3c c4 eb 95 bd 53 af 02 be
       0.033394665 0.016163712 -0.07320359 -0.12762193
000330 54 2a b5 bc 05 20 97 3b a4 1c 0b 3d a9 9d 89 3d
       -0.02211491 0.0046119713 0.03396286 0.067195244
000340 8b 9d 3c bd a4 48 cf bd 3a e9 d2 3d 1b 81 80 3c
       -0.046048682 -0.10121277 0.10298391 0.015686562
000350 3f 81 ac bc 0d e5 df bd 3a 06 0c bd da a9 9f 3d
       -0.021057723 -0.1093236 -0.034185626 0.077960685
000360 d1 ec 19 3d d9 04 be bd 6b b4 63 3d 79 fa 97 3d
       0.03757936 -0.09278268 0.05559198 0.07420821
000370 ed b4 9a 3b a6 41 cc 3d b2 78 79 3d 57 0e d5 bd
       0.004721275 0.09973459 0.06090612 -0.10403126
000380 3e dc 73 bd e8 d1 9c bd 1a a0 bd bd c4 e2 5b bd
       -0.05953621 -0.07657224 -0.092590526 -0.053683057
000390 78 84 0c bc 0e 9e 01 be fb 4d 0a 3d e1 2e d3 3c
       -0.008576505 -0.1265795 0.033765774 0.02577919
0003a0 57 a0 5f bc a8 a2 2f 3d c4 8d 5f 3d e3 5a 93 bc
       -0.013649068 0.04287973 0.054578558 -0.017987674
0003b0 54 6b 5b bb 9f ba cf bd 37 a8 6e ba b8 9e b6 3d
       -0.003348072 -0.10143017 -0.00091040455 0.08916992
0003c0 2f 70 da bd 53 0f c8 3d 33 64 c6 bb f2 a3 ae 3c
       -0.106659286 0.09768548 -0.006054425 0.02131841
0003d0 c3 9d 1d bd 32 25 b0 3d 03 92 1c bc b8 49 59 3b
       -0.03848053 0.086008444 -0.009556296 0.0033155512
0003e0 f4 25 8c 3d 07 1a eb 3d 99 26 87 bd e6 f0 ae bc
       0.068431765 0.11479574 -0.06599159 -0.021355104
0003f0 d4 c9 92 3c bf de 5f 3d 45 0c d3 3d 97 72 a0 3c
       0.017918505 0.054655787 0.103050746 0.01958589

lstm.bias_hh_l0 f4 [256]
000000 bb 3f bf 3d e2 88 84 3d da ce 06 3d 76 21 65 3c
       0.093383275 0.06471421 0.032912113 0.0139850285
000010 7c 01 a5 bd 73 4c b5 3c 08 34 94 3d e4 54 51 bb
       -0.08056924 0.02213118 0.07236487 -0.0031941468
000020 93 d6 d7 bd 7d 9a ff 3d e0 33 c3 3d 69 96 62 3d
       -0.10538974 0.12480638 0.09531379 0.055319224
000030 e9 c2 ab 3d 81 5b f7 3d ef 68 a2 bd 49 70 f6 bd
       0.083867855 0.12078 -0.07930171 -0.120331354
000040 e7 d4 b8 bd 2d d6 57 bd dd 51 6f 3d 00 0e 9a bd
       -0.09024983 -0.05269449 0.05842768 -0.075222015
000050 b6 6b c2 3d 59 92 a8 3c 28 25 55 3d 73 c5 2b bd
       0.094932005 0.020577597 0.052037388 -0.04193635
000060 2e a9 bb 3d e7 cd b2 3d 50 1d 41 bd 3d 52 a7 bd
       0.09163128 0.08730679 -0.047147095 -0.081699826
000070 78 c2 ea 3b a8 3a 1c bd aa 03 af bc 0d b2 6f 3c
       0.0071642958 -0.038141876 -0.021364052 0.014629853
000080 a6 5a 94 bd 42 bb 25 bd 2c 84 ca 3d df 88 4a bd
       -0.07243852 -0.040461786 0.09888491 -0.049446937
000090 e2 80 10 bb fb 94 b2 bd 9c b3 8c bd 0e 9c 8b 3d
       -0.0022049476 -0.08719822 -0.06870195 0.068168744
0000a0 fb e4 16 bd 66 17 17 3d 43 c3 c5 3c 5a ab 0f bc
       -0.036839467 0.03688755 0.02414096 -0.008768881
0000b0 bd f1 fd bd d6 52 d4 3c 69 5d db 3d 73 03 ce bd
       -0.123996235 0.025918406 0.10711176 -0.10059252
0000c0 c3 d6 b3 3d df 96 85 3d 36 9b 15 bd 06 ee 25 3c
       0.08781197 0.06522917 -0.036524974 0.01012755
0000d0 3c de a5 3d 6c 0a 7b bb 7f 60 c8 bd 94 f4 e1 3d
       0.080990285 -0.0038305772 -0.0978403 0.11032978
0000e0 04 3d 39 3c e8 6a 5f 3d 8b 46 87 bd d8 8e 96 bd
       0.011306051 0.054545313 -0.06605252 -0.07351464
0000f0 f3 ef 94 bd 2f 0b c8 bd 1d 1a 0f 3c b1 b3 96 3d
       -0.07272329 -0.09767758 0.008734253 0.07358492
000100 c4 82 b6 3d 98 94 a5 bd 23 82 88 3d 2d d5 2b bd
       0.0891166 -0.08084983 0.066654466 -0.041951347
000110 1c b0 ed bd 71 91 8d 3c ff 89 83 3d c1 10 b1 bd
       -0.11605856 0.017281266 0.06422805 -0.08645774
000120 fd bb e1 3d 5f e6 9c 3d 69 86 14 bc 27 63 1d bb
       0.11022184 0.07661127 -0.009065249 -0.0024015398
000130 ee 36 73 3d db e9 82 3d 70 36 cb bd 53 46 a1 bd
       0.059378557 0.06392261 -0.099224925 -0.078747414
000140 f8 47 e3 bd de d4 da bd c5 ee c7 bd cf 35 0a 3e
       -0.11097711 -0.106851324 -0.097623385 0.13497089
000150 dd 02 e7 bd a3 a0 7b 3d d1 98 f2 3d cd 9f ed 3d
       -0.11279843 0.061432492 0.11845554 0.11602745
000160 53 20 61 3d 2a 2b 86 ba d5 1b c1 bb 10 48 9b bd
       0.054962467 -0.0010236253 -0.0058932104 -0.07582104
000170 0c 2d ce bd de e8 e9 3d 4a 9a f8 bc ba fd ae 3b
       -0.10067186 0.11421369 -0.030347008 0.005340305
000180 3e 1a 70 3d 23 a8 c7 bc c2 15 3f 3d cb 9e 17 bd
       0.058618777 -0.024372166 0.04665161 -0.03701667
000190 20 14 de 3a de 3f 86 bd 9f 9c a8 3d 5b 82 03 3e
       0.0016943254 -0.065551504 0.08232998 0.12842695
0001a0 07 4a dc bd 83 28 a8 3d ad 64 8a bc ac f4 83 3d
       -0.10756307 0.08210852 -0.01689371 0.06443152
0001b0 df 69 ef 3d e5 48 94 bd c1 fe ee bd 4e 16 52 3d
       0.11690115 -0.07240466 -0.11669684 0.051290803
0001c0 3a 60 63 3d 65 b2 96 3c 99 1d f1 3d 51 9b 04 3d
       0.05551169 0.018395612 0.117732234 0.032374684
0001d0 f0 2a 7a bc 32 61 96 3d f2 5d bf bb 81 2f 40 bd
       -0.015269026 0.07342757 -0.0058400566 -0.046920303
0001e0 fc 66 35 3d a4 38 6e 3d 97 e4 40 bd 1a a2 9d 3d
       0.044287667 0.058159485 -0.047093 0.07696934
0001f0 bf 5d fc 3d 4b d8 cc bc bb ca 98 bc 56 5d 56 3d
       0.12322568 -0.02500548 -0.018651357 0.052335106
000200 b7 cb e1 3d 24 61 01 bd d0 43 27 bd fb c9 ff 3c
       0.11025184 -0.03158678 -0.040836155 0.031224241
000210 13 fb c9 3d 54 bb cc bd da 8b dd bc c6 5b b8 bd
       0.09862342 -0.099966675 -0.027044225 -0.090018794
000220 c9 8a a0 3c c2 c6 e7 3d 0a 35 37 bd 2b 45 da bd
       0.019597428 0.11317207 -0.044728316 -0.10657724
000230 b2 c2 e7 bd f0 64 f0 bd 30 1f 8b 3d 1c 07 e6 bd
       -0.11316432 -0.11738002 0.06793058 -0.11231825
000240 29 9c 4f bd d3 25 b2 bd a9 0c 90 bd af 6b b5 bc
       -0.050686035 -0.08698621 -0.07033665 -0.022146074
000250 71 a0 75 3c 57 2f 20 ba 9e 68 a4 3d ae 34 fc 3d
       0.0149918655 -0.000611057 0.08027767 0.12314735
000260 ea c4 6b 3d 14 5a 1c bc 60 ad 78 bd 1d 12 e5 bb
       0.05756084 -0.009542961 -0.06071222 -0.0069906847
000270 c2 38 4a bc 5b a6 d7 bd 36 c8 ea 3d e6 7c 30 3d
       -0.012342634 -0.10529777 0.114639685 0.043087862
000280 11 79 c6 bc 13 00 2b bd 57 74 fc 3c 47 f0 04 3e
       -0.02422765 -0.041748118 0.030817194 0.12982284
000290 01 c4 e4 bd fd b5 8c 3c 0a c9 20 bd 52 50 3e bd
       -0.11170197 0.017176623 -0.039254226 -0.04646332
0002a0 3b 25 05 bc 3f 28 22 bd 27 44 92 3b c2 03 d8 3c
       -0.008126552 -0.039589163 0.004463691 0.02636898
0002b0 54 a3 a7 3d b6 b3 52 3c 04 79 95 3d fa 8c 89 bd
       0.08185449 0.012860229 0.072984725 -0.06716342
0002c0 48 d6 e3 bd 69 54 79 bd 20 17 6d bd dd b5 04 3e
       -0.11124855 -0.060871515 -0.05788338 0.1296
0002d0 45 b8 c4 bb e8 f3 8b 3d 07 e3 b2 bd 32 98 a0 bd
       -0.006003412 0.06833631 -0.08734708 -0.07841529
0002e0 dd 9b ed bc a0 00 f1 bd 11 72 9e bd 49 fe ab bd
       -0.029004985 -0.11767697 -0.077366 -0.083981104
0002f0 d0 9d 99 bd 01 39 a1 3d d2 38 ba bb d9 7c ea 3d
       -0.075008035 0.07872201 -0.005683043 0.11449594
000300 ee 19 b6 3d 0a 0a 8a 3d a9 40 44 3c 64 12 1d 3d
       0.088916644 0.06740196 0.011978307 0.038347617
000310 f7 72 63 3d 79 9c 10 3d f5 81 61 bc d0 48 42 bd
       0.05552956 0.035305474 -0.013763894 -0.04743272
000320 e0 ca 1c 3d 6a bd ae 3b 0f 5f 19 bd ea d0 4b 3d
       0.038279414 0.0053326385 -0.03744417 0.049759783
000330 b1 54 ac bd 4f 23 0b bd 38 50 b7 b8 1b d7 a2 bd
       -0.08414591 -0.03396922 -8.741062e-05 -0.07951184
000340 3e 76 a5 3d 51 dc 73 3d a4 76 ec 3d ae 99 39 3d
       0.080791935 0.059536282 0.115460664 0.045312576
000350 bd d0 7a bb 8d f8 8f 3d 7b b3 ad 3d 09 c4 6c 3d
       -0.003827139 0.07029829 0.08481499 0.05780414
000360 ae e8 f0 bd 27 47 c7 bc ee bf f4 3d e3 a9 ae 3d
       -0.1176313 -0.02432592 0.1195067 0.08528497
000370 0c a5 bc bd 0f c8 5f 3d 6b 6b e6 bd fb 41 7c 3c
       -0.09211168 0.05463415 -0.11250957 0.01539659
000380 9f 56 5a bd 44 66 02 3e 72 fa 91 bd 70 86 30 bd
       -0.053305265 0.12734324 -0.07127847 -0.04309696
000390 8c 8f 57 3d 06 fb 11 3d 4d 43 e3 3d 5e 5f ec 3d
       0.05262713 0.035639785 0.11096821 0.11541627
0003a0 3f d3 3a 3d 8e 91 81 3d dc 41 44 bd 2a d6 ea 3d
       0.045611616 0.063265905 -0.04791437 0.1146663
0003b0 38 63 96 3d c4 da c8 3b 98 12 f0 ba 80 3f 75 bb
       0.07343143 0.0061295945 -0.0018316088 -0.0037421882
0003c0 32 7e de 3c e3 69 61 3d 43 cb f1 3c 1d b0 40 bc
       0.027159784 0.055032622 0.029515868 -0.011760739
0003d0 03 cd 76 3d 94 2b 30 3d 21 73 05 bd c7 4c e1 3d
       0.06025411 0.04301031 -0.0325805 0.11000972
0003e0 6f f4 84 bd 73 12 da bd 9a e9 17 bc 0a 20 9e 3d
       -0.064919345 -0.1064805 -0.009272004 0.07720955
0003f0 2c ba d3 bd cf 12 2f 3c 37 b2 e6 3d 24 57 ed bd
       -0.10338244 0.010685637 0.112644605 -0.115888864

lstm.weight_ih_l1 f4 [256, 64]
000000 ce 04 55 bc 6f ca eb 3d fe d7 a1 bd db cb 5d 3d
       -0.013001634 0.115132205 -0.07902525 0.05414949
000010 b9 19 b7 3d 9a a6 b3 bc 4f ce 9f 3d 98 71 9d 3d
       0.08940453 -0.021930028 0.07803022 0.07687682
000020 7d 08 c0 bb 91 96 84 bd 2c 6a 06 be b8 cf ab 3c
       -0.005860387 -0.06474031 -0.13126439 0.020973071
000030 f9 89 20 bd 9c 90 a4 3d bf 62 a1 bd b4 c9 bd 3d
       -0.03919408 0.080353945 -0.078801624 0.092669874
000040 e3 94 f8 bd ba b7 5f bd f5 8d 14 bd 83 6a 05 3d
       -0.12137773 -0.054618575 -0.036268193 0.03257228
000050 f4 4e ed bc 67 49 1a ba e0 f2 a9 3d 2a 38 7f 3d
       -0.028968312 -0.00058855716 0.08298278 0.06230942
000060 79 d1 a2 bc 54 d5 67 bd 53 9f a9 bd 99 5d 9b bd
       -0.019875275 -0.05659993 -0.08282342 -0.07586212
000070 f9 43 b6 3c 70 f7 36 3d 3d 34 4a bd ef 53 e1 3c
       0.022249209 0.04466957 -0.049366225 0.027505843
000080 d5 39 fc bd 2b c2 f9 bd 4c 93 dc bd d6 97 fb 3d
       -0.12315718 -0.12195238 -0.10770282 0.1228482
000090 0d 69 15 3c bf e8 08 bc 57 4d c4 bd d5 4b 4b bc
       0.009119284 -0.008356272 -0.09585064 -0.0124082165
0000a0 92 fd db 3d 05 97 ed bc eb f3 d2 bb 7c da 09 3e
       0.10741724 -0.029002676 -0.0064377687 0.13462251
0000b0 23 c4 42 bd 33 0c d9 3d 08 af f3 bd fb 33 5d 3c
       -0.04755033 0.1059803 -0.11898619 0.013501163
0000c0 db 6d 83 3d c0 52 a5 3b b2 ca 88 3d a0 07 91 3d
       0.06417438 0.005045265 0.06679286 0.070815325
0000d0 01 84 95 bd 1d bf 85 bd 48 50 09 be c2 a7 50 3d
       -0.07300568 -0.065305926 -0.13409531 0.050941236
0000e0 95 64 79 bd ff 78 06 be 45 6e c5 bd 9a 6c a7 bd
       -0.060886938 -0.13132094 -0.09640173 -0.08175011
0000f0 dd 94 82 3d b6 e9 5d bd 2c 0c 19 3d 42 6e 93 3d
       0.0637605 -0.054177962 0.037365124 0.071987644
000100 70 2c 6f bd 85 f3 61 bd a0 09 84 3d e0 84 83 bd
       -0.05839199 -0.05516388 0.06447148 -0.06421828
000110 9c 89 d2 bd 29 20 a3 3d f9 64 c2 bd 15 9f db 3d
       -0.10280153 0.079651184 -0.09491915 0.10723702
000120 33 35 79 bd 18 6a 43 bd d6 98 6f 3d b8 b3 4f 3d
       -0.06084175 -0.0477086 0.058495365 0.050708503
000130 52 41 b1 bc 4d 21 d3 bd 0c 60 72 3d bd cc 2d 3d
       -0.021637592 -0.10309086 0.05917363 0.04243158
000140 b8 b4 df 3d e2 4b bc 3c 42 9e 77 bd 11 9b 1e bc
       0.10923141 0.022985402 -0.06045366 -0.009680525
000150 04 58 f7 bd 2a 23 bd bd 60 4a 13 bd 68 f2 3f 3d
       -0.120773345 -0.09235223 -0.0359596 0.046862036
000160 61 e4 37 bd 54 55 b7 3d ef c2 37 bd fe 4b c6 3d
       -0.044895533 0.08951822 -0.044863638 0.09682463
000170 1f 96 78 3d 56 f3 b6 3d dd 1d d6 bd 54 4e 30 bc
       0.06069004 0.089331314 -0.10454915 -0.010760862
000180 1b d9 c6 3d 64 74 03 be 79 be 34 bd a5 07 ad bd
       0.09709378 -0.12837368 -0.04412696 -0.08448724
000190 95 dd e1 bd 90 a4 40 bd 3e 3f 29 bd 3b 08 97 bd
       -0.110285915 -0.04703194 -0.041320078 -0.07374617
0001a0 98 1a 51 bc 61 1f dd 3d 5c 48 da 3d 1a 70 12 bd
       -0.012762688 0.10797001 0.10658333 -0.03575144
0001b0 4f 52 16 3d f0 e5 9d 3d 6d 44 52 bd b0 b5 cb 3d
       0.03669959 0.07709873 -0.051334787 0.099467635
0001c0 aa 12 93 3d 03 7c 1c 3d c4 71 e6 bd 5e d4 51 3d
       0.07181294 0.038204204 -0.11252168 0.05122792
0001d0 7f b4 d3 3d 6d 09 8e 3c d2 08 08 be a5 b2 ab 3d
       0.10337161 0.017338479 -0.13284615 0.08383683
0001e0 00 34 a4 bd 78 b5 1f 3d 33 44 20 3d c9 b3 2a 3d
       -0.08017731 0.03899142 0.03912754 0.041675363
0001f0 23 2a 9e 3d 43 84 e6 bd a0 4b 04 3d 91 b2 95 bc
       0.07722881 -0.11255696 0.032298684 -0.018273624
000200 8d 69 eb bd 10 2c 8b 3d 30 e2 8d 3d 39 a9 a8 bd
       -0.114947416 0.06795514 0.069279075 -0.08235402
000210 b5 1e f0 3d 78 43 04 3d 14 c3 b1 3d 23 98 87 3d
       0.11724607 0.032290906 0.08679786 0.06620815
000220 78 2e 65 3c ce de 6c bc 56 c2 83 3d 7e 94 62 bb
       0.01398813 -0.014457418 0.06433551 -0.0034573372
000230 a6 52 67 bd 46 bb d9 bd 06 55 e0 3d cc 82 53 3c
       -0.056475304 -0.10631423 0.10953717 0.012909602
000240 be 9d 07 bd 65 e2 49 3d 90 cb a8 bd 70 0d 9f 3d
       -0.03310942 0.049288172 -0.082419515 0.07766235
000250 b9 e1 d9 bd c2 87 13 bd ec eb ff bd 84 ed 02 bb
       -0.10638756 -0.03601814 -0.124961704 -0.0019977996
000260 4d c6 a6 bd a5 46 8d bd f7 1f d5 bd a3 26 0d bc
       -0.081432916 -0.0689824 -0.104064874 -0.008615169
000270 12 7c cb bd 29 b1 03 3e ff 29 98 bd c6 7d 95 3d
       -0.09935774 0.1286055 -0.07429885 0.0729938
000280 38 da 11 3d 2e a3 ba 3d c4 ac 0e bd b8 94 05 bd
       0.0356085 0.09113155 -0.03483273 -0.032612532
000290 a0 94 e1 3d 25 0d 83 3d 71 c6 9e bd 8c 08 bd bc
       0.11014676 0.063989915 -0.077526934 -0.023075365
0002a0 29 5d 8b 3d 2d 92 ef 3c ca cf cc 3d a2 07 22 bb
       0.06804878 0.029244507 0.1000057 -0.0024723788
0002b0 4e ea 42 bd 2a 13 7e bd 26 0e ed bd a7 93 04 3d
       -0.04758673 -0.062029995 -0.11574964 0.032367375
0002c0 09 a5 33 3d 00 ef b0 3d 1a e0 04 3d 09 4b 59 bd
       0.04385856 0.08639336 0.032440282 -0.053050075
0002d0 71 8a a6 3d ff 73 3f bd f8 37 48 3c 4b 5d af bd
       0.08131874 -0.046741482 0.012220375 -0.08562716
0002e0 61 71 11 3c 7a d5 d2 bd 31 54 99 bd 51 40 57 bd
       0.008877129 -0.10294624 -0.07486761 -0.05255157
0002f0 47 53 aa 3d d7 09 e5 bd 2e 4c 8f bd ec 93 fa bc
       0.08316665 -0.111835174 -0.06996952 -0.030588113
000300 9b 5a 33 3c 25 81 a7 bd 77 3e 09 bc 23 4e 52 bd
       0.010946895 -0.08178929 -0.008376709 -0.05134405
000310 5d 4f 12 3c 2b 7c 3c bb a5 23 6f 3c 2a 99 b4 3d
       0.0089300545 -0.0028760533 0.014595901 0.08818276
000320 97 28 4d bd 99 de c0 bd ed c5 a6 3c da e4 7c 3c
       -0.050087538 -0.09417457 0.02035805 0.015435422
000330 69 dc 72 3d d0 f7 27 bd 6d 47 f0 bd 78 5e 59 bd
       0.05929223 -0.041007817 -0.117323734 -0.053068608
000340 8e e8 85 3c 3d 57 de 3d 69 9a 19 3d 8e 82 9a bd
       0.016346242 0.10856483 0.037500773 -0.075444326
000350 57 fc c5 3d 21 d8 04 3e 0b 80 98 bd e7 18 d3 bd
       0.09667271 0.12973072 -0.07446297 -0.10307484
000360 72 ed a2 bd a3 af 13 3c 48 e9 82 bd 6e 3d e1 3d
       -0.07955445 0.009014043 -0.06392151 0.10998045
000370 9b aa a4 bd 33 c0 a3 3d 3b 6d c9 3d 5f aa 3f bd
       -0.08040353 0.079956435 0.09835287 -0.046793338
000380 b7 1b d8 3d 8b da 19 3d 61 c2 b1 bd 33 32 f4 3b
       0.10552161 0.037561934 -0.08679653 0.0074522733
000390 bb 4e be bc 58 21 a8 bd 43 bb ab bd 64 5a 04 3e
       -0.023230901 -0.08209485 -0.08385327 0.12925106
0003a0 c4 d8 e9 3d ec 0b cb 3d c7 eb 9f bd 49 08 c2 3d
       0.11418298 0.09914383 -0.07808643 0.094742365
0003b0 07 8e 39 bd 98 ca be bd fd e9 c8 bd 1f 3d 18 3d
       -0.045301463 -0.093159854 -0.09810255 0.037167665
0003c0 70 39 3d bc 5e ca ab bc d2 64 40 3d 0e c8 6a bd
       -0.011549339 -0.02097052 0.04697115 -0.057319693
0003d0 4c c9 d6 3d c0 fa 29 bd bd fc 63 bd c9 48 b5 bc
       0.10487613 -0.0414989 -0.055660952 -0.022129433
0003e0 24 db 09 bc 86 5d 17 3d 4b 98 30 3d 82 9a 53 bb
       -0.008414064 0.036954425 0.043113988 -0.0032288139
0003f0 b4 bc 99 bd 10 d7 06 be 12 08 5b 3b 7f 8f ef 3c
       -0.075066954 -0.13167977 0.0033421558 0.029243229

lstm.weight_hh_l1 f4 [256, 64]
000000 c1 62 99 3d e4 a1 92 bd c2 16 34 3d a2 86 68 3d
       0.07489539 -0.071597844 0.043967016 0.05676902
000010 20 be 05 be c2 9a c9 3d 2c 06 11 bd 1f 6e 44 bd
       -0.13060808 0.09843971 -0.035406277 -0.047956582
000020 18 4d a9 3d 5e 1f ea bc 76 a9 82 3c 21 11 d2 bd
       0.082666576 -0.02857941 0.015949946 -0.10257173
000030 28 23 d3 3d b8 aa 18 bd 65 c6 51 3d f2 68 ab 3c
       0.1030944 -0.037272185 0.051214594 0.020924065
000040 e2 9a 15 bc 1d 62 9d bc 17 ac 7c 3d a2 e5 d3 bd
       -0.009131165 -0.019211823 0.061687555 -0.10346533
000050 da 0f 9c 3d 37 f4 e5 ba 60 a7 b4 bd 46 92 7c bc
       0.07620211 -0.0017544095 -0.08820987 -0.015415734
000060 c5 2a 05 3e 38 87 1b bb c4 77 53 3d e0 b5 d4 3d
       0.13004597 -0.002373172 0.05162789 0.103862524
000070 90 8d 12 bc 22 79 db 3d 15 c4 de bd 5a 96 58 3c
       -0.008944884 0.107164636 -0.108772434 0.01321944
000080 9b bb e7 bd e7 7e db bd e3 2e 06 be 2f db 46 bb
       -0.1131508 -0.10717564 -0.13103823 -0.0030343046
000090 e1 a7 5b bb 83 79 9f 3d 6f 49 90 3c d8 fd 97 bc
       -0.0033516812 0.077868484 0.01761314 -0.01855366
0000a0 c3 53 01 bd a0 26 ea 3d 3a b3 f9 bc 8e 5d 2c 3d
       -0.031574022 0.114331484 -0.03048097 0.04208141
0000b0 d5 7e 08 3e 10 b4 d4 bd 5e db f6 bc d2 b8 27 bd
       0.13329633 -0.10385907 -0.0301339 -0.040947743
0000c0 3b c3 ec 3d fa fa ca bd ad 9d 87 bd 0f 5f d1 bc
       0.11560675 -0.09911151 -0.06621871 -0.025558023
0000d0 7d f5 25 bd 43 4e 95 bd cb aa a6 bd 59 6d a1 3d
       -0.04051732 -0.07290318 -0.08138045 0.078821845
0000e0 e0 1b b6 bd 5e 51 09 bd fa 19 b1 3d fa 69 c3 bc
       -0.088920355 -0.033524863 0.08647533 -0.023854245
0000f0 33 37 35 bd 04 f1 08 bd 6b f7 42 bd 0e c2 e7 3c
       -0.044242095 -0.033432975 -0.047599237 0.028290775
000100 60 45 a8 bd e0 22 45 bd 41 62 1a 3d d7 10 fd 3c
       -0.08216357 -0.048128963 0.03769136 0.030891819
000110 ed c6 26 3d 0e 65 b2 bd d2 e8 fc bd 11 fb ae bd
       0.040717054 -0.08710681 -0.123490945 -0.08543981
000120 42 f4 e9 3d c3 19 ab bd 7c 3e c6 3d f0 94 fa 3d
       0.114235416 -0.08354523 0.09679887 0.12235439
000130 41 08 27 3d 82 be e7 bd 5b 66 cd bd bf a4 4e bd
       0.040779356 -0.11315633 -0.100292884 -0.050450083
000140 4c 85 5b 3b 64 ac 6c bd 5b 40 2d 3c d1 3e 01 3e
       0.00334962 -0.057781592 0.010574426 0.12621619
000150 a0 c7 00 bd d6 07 55 3d d3 84 06 bd ad 0c e8 3d
       -0.031440377 0.052009426 -0.032841515 0.11330543
000160 22 c7 1c bd fd 72 5f 3c 98 be 3b 3d 3d 30 97 3d
       -0.038275845 0.013638255 0.04583606 0.073822476
000170 93 c0 54 bc 0c 1f c3 3d 89 d5 96 3d 8e ed 94 3d
       -0.012985366 0.09527406 0.07364947 0.072718725
000180 f7 d0 09 3d 64 08 e1 bb fe 1a b5 bd db da e2 bd
       0.03364655 -0.0068674553 -0.08843039 -0.110768996
000190 68 75 c7 3d e6 29 5d bd 6c 6b d7 3d 88 98 a6 bd
       0.0973919 -0.053995036 0.10518536 -0.08134562
0001a0 b7 dc d6 bc 24 82 97 3c c1 ad d0 3c 52 f8 e6 3d
       -0.026228292 0.018494673 0.025473477 0.11277832
0001b0 82 68 db bb 8d 30 db bd 1a 27 b9 3d a1 9f ff 3d
       -0.006695808 -0.1070262 0.09040661 0.12481619
0001c0 5c 67 28 bd e9 4e b5 bd 2f 65 aa bd 37 05 e9 3d
       -0.041114196 -0.088529415 -0.083200805 0.11377948
0001d0 d7 85 96 bd 4d 32 77 3d 3b c7 d9 bd 64 a6 35 3c
       -0.07349747 0.060350705 -0.10633703 0.011087034
0001e0 59 bc eb bc ad 38 10 ba 0d f1 77 bd 0e 73 93 bd
       -0.028776335 -0.00055016094 -0.06053262 -0.07199679
0001f0 bd de fb 3d 0b 9c d0 3d 4a 80 8d 3c 03 44 1d bd
       0.12298343 0.10186013 0.017273087 -0.03839494
000200 d3 a0 b9 3d 76 43 18 3c fb 9d 72 3d 11 82 9b bc
       0.09063878 0.009293428 0.059232693 -0.018982919
000210 f7 74 e6 3d ce e8 af 3d c9 f9 34 3d 49 da 8c bd
       0.11252778 0.08589326 0.044183526 -0.06877572
000220 eb 4e cf 3c ee 26 73 bc ca 9e e5 bc 9a 87 aa bc
       0.025306186 -0.0148408245 -0.028029818 -0.020816613
000230 7f a0 b0 3d 48 cd 15 bb 0c ce bf bd 1e f9 ba 3c
       0.08624362 -0.0022857953 -0.09365472 0.022823866
000240 8d 8a a6 3d 2c 3a 07 3b 8d aa 03 3e 39 f8 cb 3d
       0.08131895 0.0020634038 0.12858029 0.09959454
000250 3a c1 bb bd a9 44 8e 3d 19 2c 9b bd 91 f3 a6 bd
       -0.091677144 0.0694669 -0.0757677 -0.08151925
000260 c8 95 02 bc 13 1b b3 bd 0c b8 9a bc 6e b6 5e bd
       -0.007970281 -0.08745398 -0.018886589 -0.054373197
000270 66 1e a3 3d 1c d3 03 bd ec 0a 12 3d 58 60 dd 3d
       0.079647824 -0.03218375 0.035654947 0.10809392
000280 0d 21 9a 3c 39 20 5c 3d 9e 6b d1 bd 75 5b 67 3a
       0.018814588 0.053741667 -0.102256045 0.0008825579
000290 24 a2 80 bd 90 f3 2f 3d c3 2f be 3d cc 0b 42 3d
       -0.06280926 0.04295689 0.092864536 0.04737453
0002a0 4f 2a 04 3d 40 45 55 3c 53 f9 98 3d ee 29 ab bc
       0.03226691 0.013016999 0.0746943 -0.020894017
0002b0 ca 5e 71 3c 53 2c e8 3d 6a 2c 58 bd b2 28 a4 3d
       0.014732072 0.11336579 -0.05277673 0.080155745
0002c0 40 40 13 bc 58 a8 18 3c ba c4 6b bd 69 a0 01 be
       -0.008987486 0.00931748 -0.05756066 -0.12658848
0002d0 1f c3 d3 bd 13 11 b8 3d 22 68 2f bb 12 4d e2 bd
       -0.10339951 0.08987632 -0.002676495 -0.11049856
0002e0 f8 7d c8 bd af 57 37 bd 9f 3c 08 3d 61 df 37 3d
       -0.09789652 -0.044761356 0.033260938 0.044890765
0002f0 4f ec b8 3d bd be d8 bc a2 86 ce 3d a8 ea a2 bd
       0.09029447 -0.026458139 0.10084273 -0.079549134
000300 fc a9 8e bc 10 05 c8 3d ce 25 1d bc ed 88 a2 3d
       -0.01741504 0.097665906 -0.009591533 0.07936273
000310 c3 27 dc bd 7b 7b 0b bd b0 96 9e bc 3b c5 ef bb
       -0.107497714 -0.034053307 -0.019358963 -0.007317213
000320 26 20 9f 3d 6b 40 ad 3d 20 c4 b9 bd 3b 6a 89 3d
       0.07769804 0.084595524 -0.09070611 0.06709715
000330 ec 25 08 3e 41 62 64 3d 90 e8 0d bd 15 bd 12 bd
       0.13295716 0.055757765 -0.034645617 -0.035824854
000340 fa b8 57 bd 07 15 96 3c 03 4e 8e 3d ea d0 cf 3d
       -0.05266664 0.018320573 0.06948473 0.10147269
000350 45 70 c5 bc ac 42 a7 3d 80 3c 47 3d 43 65 af bd
       -0.024101386 0.081670135 0.04864168 -0.08564236
000360 8f 98 8e bd 2f 32 97 3b bc 2f aa 3a 07 15 f0 bd
       -0.06962692 0.0046141366 0.0012984197 -0.11722761
000370 7d 97 08 be 9e 21 e5 3d 1e 5c 63 bd 7a 1e db 3c
       -0.13339038 0.111880526 -0.05550777 0.02674793
000380 47 0f f3 3b 32 51 06 3e ef 0f 36 bc f8 9a 47 3d
       0.0074175927 0.13116911 -0.011112197 0.048731774
000390 8a c4 99 3d e4 fe 06 bd 8a 5d 2a 3d 03 bb ac bd
       0.0750819 -0.032957926 0.041593112 -0.08434107
0003a0 ec b8 97 3c dd c2 05 be 27 77 cc bd 49 3d fe 3c
       0.018520795 -0.13062616 -0.09983664 0.031035082
0003b0 75 ae d5 3d f4 88 df bd 31 ac d5 3d 93 91 df 3d
       0.10433666 -0.109147936 0.104332335 0.10916438
0003c0 d2 7e c2 3b 31 71 b9 bd e4 fc c7 bb 70 7b fc bd
       0.0059355283 -0.09054793 -0.006103145 -0.12328231
0003d0 a0 fa c9 bd c0 d0 b0 3d 93 f2 b7 3c cf 9a 6e 3c
       -0.09862256 0.08633566 0.022454536 0.014563276
0003e0 60 eb 45 3d 0c c3 ca bd 58 3c a9 3d c6 76 94 3d
       0.048320174 -0.099004835 0.08263463 0.07249217
0003f0 24 3c 84 bd 81 6c d7 bb 44 3d 01 be b5 df 05 be
       -0.064567834 -0.006574214 -0.12621027 -0.13073619

lstm.bias_ih_l1 f4 [256]
000000 09 94 cd 3d a9 94 bf bd aa bc 92 bc 03 c7 39 3c
       0.10038001 -0.093545265 -0.017912228 0.011338952
000010 b8 f8 67 3d dc 23 70 3d 16 0e 2e 3d ad 1f ed 3d
       0.05663368 0.05862795 0.042493902 0.11578307
000020 7e b7 e6 3d 65 d5 ae 3d a9 60 b4 3c 4f 56 0e 3d
       0.11265467 0.085367955 0.022018747 0.03475028
000030 cf 86 85 bc b2 c4 13 3d 99 10 e2 3d 13 f0 eb bd
       -0.016299633 0.036076255 0.11038322 -0.115204
000040 60 22 de bc 1e 4b ec 3d 95 ac d5 3d b0 f5 b6 bd
       -0.027116 0.11537765 0.10433308 -0.0893358
000050 31 8e 2b 3d e6 ae 93 3c 1f 3b e3 3d 4a d3 5d 3c
       0.04188365 0.018027734 0.11095261 0.013539145
000060 b1 69 71 3d 05 b7 e1 3d 9a bf f3 3b 01 bd 4b bd
       0.058938686 0.11021236 0.007438612 -0.049740795
000070 48 41 f5 3c e6 65 16 3d 2b d0 3a 3d 55 af 6d 3d
       0.029938355 0.03671827 0.04560868 0.058028538
000080 8a be af bd 22 36 01 bd ee c2 9e bd bf fb ed bd
       -0.08581264 -0.031545766 -0.07752024 -0.116202824
000090 ec aa ce bd e4 f7 a9 3d 2b f6 a8 bd 1c df c9 bd
       -0.100911945 0.082992345 -0.08250078 -0.09857008
0000a0 0d 21 b5 bd b2 ca fd bc 56 a5 d1 3d c7 ef c5 3d
       -0.088441946 -0.030980442 0.102366135 0.096648745
0000b0 1a 04 fc 3d 69 9e 32 3d c3 f0 00 be 26 96 dc 3c
       0.1230547 0.043608103 -0.12591843 0.026927065
0000c0 38 0c aa bd 83 16 da bd 08 25 bc 3d 37 b2 ff bd
       -0.08303112 -0.10648825 0.09186751 -0.12485164
0000d0 21 24 8a bd 85 b9 60 bd c9 bf 26 3d 01 cc 73 3d
       -0.06745172 -0.054864425 0.040710244 0.059520725
0000e0 ae c4 72 bd b0 41 cd bd 04 a0 d9 bd 4b d0 e6 bc
       -0.0592696 -0.100222945 -0.10626224 -0.028175494
0000f0 15 b7 97 3d f1 45 f0 bc 69 40 97 3d 06 5d df 3d
       0.07407967 -0.029330226 0.07385332 0.10906415
000100 f0 1c 95 3d 0e 9c e5 3d 27 fb 2c 3d 05 82 9b bd
       0.0728091 0.11211406 0.042231705 -0.07593159
000110 4a be 39 3c 2b 09 c3 bd ce 2c 07 3c ad 07 fc 3d
       0.011336872 -0.09523233 0.008250428 0.123061515
000120 11 62 64 bd 4b f9 a8 3c c7 61 13 bd 39 89 b4 3d
       -0.055757586 0.020626685 -0.03598192 0.08815236
000130 49 b8 dd 3d e5 6f f5 3c b7 f2 14 3d cc f0 e8 3c
       0.10826165 0.029960582 0.036364283 0.028435133
000140 3e e7 2b 3c d8 8b dd bd c0 e4 9c bd 89 04 05 3e
       0.010492144 -0.10817689 -0.07660818 0.12990011
000150 40 16 3a bc 80 e9 80 3d ee 10 df 3c c4 3f 04 be
       -0.011357844 0.062945366 0.027229752 -0.1291495
000160 43 87 04 3e 9b 58 57 3d f5 3c e7 bd 60 8c 9c 3d
       0.12942223 0.052574735 -0.112909235 0.07643962
000170 73 9b 06 3e 6b 8a 88 bd 5d 97 cc bd 90 de 7f 3c
       0.13145237 -0.06667026 -0.09989808 0.015617028
000180 3d 95 70 bd e9 74 93 3d 1e db 25 3d 01 be e7 3d
       -0.058736075 0.07200033 0.04049217 0.11315537
000190 eb 9f 9b bd a8 23 63 bd 03 2e ca bc 1d d3 1c bd
       -0.07598861 -0.055453926 -0.024680143 -0.03828727
0001a0 8e cd 97 3d 72 72 43 3d 40 ec 96 3d 26 f2 a2 bd
       0.07412253 0.047716565 0.0736928 -0.079563424
0001b0 44 e8 b7 bc 74 54 99 3d a5 7e ba 3d d0 63 3d 3b
       -0.02244962 0.07486811 0.09106187 0.0028898604
0001c0 25 4f f5 3d 7f 61 aa bd da 01 06 be 72 a8 95 bd
       0.11977986 -0.08319377 -0.13086644 -0.07307519
0001d0 79 7c 91 3c a0 45 b7 bd 60 51 e4 bc 7c cd 04 3d
       0.017759549 -0.08948827 -0.027870834 0.032422528
0001e0 1e 9a 9a bc a0 4b bf bd 10 d1 df bd 4d 02 77 3d
       -0.018872317 -0.09340596 -0.109285474 0.06030493
0001f0 e8 a7 ea 3d 19 a4 54 3d 86 6e 87 bd 71 5a d9 bd
       0.11457807 0.05191431 -0.066128775 -0.106129535
000200 fe be bb ba 8a 4e 62 3d 18 32 fa 3c f6 27 86 bc
       -0.0014323888 0.055250682 0.030541465 -0.016376477
000210 76 1f e2 bd d8 10 e4 3d 80 9a 8b bd cb 15 0a be
       -0.11041157 0.11136025 -0.06816578 -0.13484876
000220 02 65 c1 bd 8b e6 88 3d 7c 04 f5 3d 42 a6 a9 bb
       -0.09443094 0.066845976 0.11963746 -0.00517729
000230 86 98 84 bb 36 2d 95 bc 9e 35 8f 3d a8 23 91 3d
       -0.0040465025 -0.018210035 0.069926485 0.07086879
000240 d9 fe 81 bd 62 56 80 bb 6c b3 fc bd 6d 72 02 3e
       -0.063474365 -0.0039165476 -0.123389095 0.12738962
000250 e4 16 5d 3d 0c dd 6f 3d 2e 01 40 3c 20 41 9b ba
       0.05397691 0.058560416 0.011719031 -0.001184497
000260 3c d9 05 3e d7 33 c6 3d e5 ce 90 3d 40 92 b5 3c
       0.1307115 0.096778564 0.07070712 0.022164464
000270 3f 6a d4 3d 43 af 6c bd d5 6a be 3c 01 a1 ee 3d
       0.10371827 -0.05778433 0.0232443 0.11651803
000280 b3 d7 02 3e cd 6f a7 bd 21 5f b5 bd 8f 7a 76 3c
       0.12777595 -0.08175621 -0.08856035 0.015043869
000290 c8 ce ce 3d 99 97 e6 bd be e3 d1 bd 3d 95 39 3d
       0.10098034 -0.11259384 -0.102485165 0.04530834
0002a0 f1 52 87 3d 87 81 02 bd a1 b1 e3 3d ed 97 26 bc
       0.06607617 -0.03186181 0.111178644 -0.010168058
0002b0 27 1c 03 3e 82 fa d3 39 51 78 ca 3b 90 75 dc 3d
       0.12803708 0.000404317 0.0061788936 0.10764611
0002c0 96 ff fb 3d c7 0f d6 3d 67 b0 80 bd 19 40 87 3d
       0.123046085 0.10452228 -0.06283646 0.066040225
0002d0 a8 83 ce 3d e9 52 d5 3d ce 30 9b 3d 7f 28 e6 bd
       0.10083705 0.104162045 0.07577668 -0.11238193
0002e0 95 7e ad bd 0e 85 17 bd 55 05 e4 3d 8e 99 d1 bd
       -0.08471409 -0.036992125 0.111338295 -0.10234366
0002f0 23 fb 05 3d 55 39 b1 bd 86 f7 01 3e 43 c4 c8 bc
       0.032710206 -0.08653513 0.12692079 -0.024507647
000300 80 b0 1d bd ec c6 22 3d 13 8c f0 bc 31 43 4d bd
       -0.0384984 0.039740488 -0.029363668 -0.050112907
000310 3e e5 85 3c 0b f8 45 3c 97 86 b7 bc 83 6f e5 bd
       0.016344663 0.012083064 -0.022403045 -0.1120291
000320 fc 9c c8 3c 22 84 53 bd 3e 6f 0f bd 9e 0e 99 3d
       0.024488918 -0.051639684 -0.0350182 0.07473491
000330 c9 e4 de bd 4c 09 f1 bc f4 06 af bd 22 6f df 3d
       -0.10883481 -0.029423378 -0.08546248 0.10909869
000340 8a 09 3e 3d b8 e3 dd 3d 61 48 4c bd 0f b9 54 3d
       0.046395816 0.108344495 -0.049873713 0.051934298
000350 e9 a9 63 bc 70 7a d3 3c 3b d2 51 3d 63 21 3c 3d
       -0.01389549 0.025815219 0.051225882 0.045930278
000360 07 58 ce bd 2c 73 62 bb ae e3 8c 3d 6a e0 dd bd
       -0.10075384 -0.003455351 0.06879364 -0.10833819
000370 ea 7d 5d bd 10 c6 3f 3d a8 22 32 3c e9 36 b4 3b
       -0.05407516 0.046819746 0.0108725205 0.00549971
000380 3a de 89 bb 52 c6 04 be 05 2c cd bd bd 09 ce bd
       -0.0042073997 -0.12966278 -0.10018162 -0.10060451
000390 5e 0a a3 3c e1 d2 f7 3c 0e 79 95 bc 2f 0e bf bd
       0.019902404 0.030251922 -0.0182462 -0.09328877
0003a0 dc 18 6f bc 3f 24 ae 3c 92 29 d5 3d c4 d5 d9 3d
       -0.014593329 0.021257518 0.104083195 0.10636476
0003b0 8a 0b b4 3c d1 d6 22 3d 58 d2 d9 bd f7 e0 da bc
       0.021978159 0.039755646 -0.10635823 -0.0267186
0003c0 b6 6a 51 bd 8f 56 22 3d b0 4d 77 3c 7e 07 df bd
       -0.051127158 0.03963333 0.015094206 -0.10890101
0003d0 80 f4 d2 3d 59 43 73 3d 59 be 8f bd a1 40 98 bd
       0.10300541 0.0593904 -0.07018728 -0.07434202
0003e0 c4 9f 70 3d e5 33 e6 bc 90 d0 cb bd 5a 81 74 bd
       0.058746114 -0.028100917 -0.099518895 -0.05969367
0003f0 a5 f2 bb bd c3 3f 1c 3d bd aa 6c bd d7 fb 72 3c
       -0.0917714 0.038146745 -0.057780016 0.014830551
